models/shape_classifier.pt (torch, 314383 bytes, 8 tensors)

conv1.weight f4 [12, 3, 3, 3]
00000000: e857 b03c 82b9 3fbd 171d 163d fd37 e6bd
00000010: d54a f13d fb07 0cbe 79a2 4d3d e912 ab3d
00000020: 366a b4bd cfc6 53be 6a7d 2dbe 1be7 0dbe
00000030: a7df bebd 4b57 69bd 92c1 023e 4d96 49be
00000040: ddbf c4bd e451 25be daa7 483d 1e77 b33b
00000050: f829 e43d d821 583d 96ad 36be fb4d da3c
00000060: b3a3 30bc 1aff 323c 007f 66bd d9cc 1dbe
00000070: c14f b5bd a854 223e 1ab8 1cbd ea16 0fbe
00000080: d91b 04be f361 87bb 6ad4 f6bd ed4d 4b3d
00000090: 5bf7 0dbe 11e3 c3bc 0106 00be e8fd b9bb
000000a0: 9e87 0abe 23c4 d43d 39e8 11be a73f cb3d
000000b0: ab1e 753e e96a d4bc 9084 4bbe e7cc aabd
000000c0: 1a37 6ebe 77bf 4fbe b66a ee3c 6bfe 3dbe
000000d0: fce6 a03d d7c6 e83d bfe7 edbd 28f5 f8bd
000000e0: 7653 a1bd 9efe 14be 1825 bebd 5b4f f1bd
000000f0: 4963 8bbd 4a6a 40be b393 31bd 9172 123e
00000100: 8007 ca3d a7ed 0dbe 5545 29be e351 1c3d
00000110: d336 513e 1516 0fbe 86d2 65bc 5bb8 ee3c
00000120: f723 d33a d48f 34be 3a0b 1ebe ffa1 1dbe
00000130: 077f 2fbe 4bac f6bc 286a e73d c08b 6cbe
00000140: 5c45 03be 14f3 f3bd 2e37 61bb 8a08 203e
00000150: 931b 463e 8fff 09bb 45c9 abbd fb5c 1d3e
00000160: 3bf2 c63c 10b6 c63c ba7c 21be c5c9 11be
00000170: a6c1 debd 62f8 893d 9574 86bc eacc f63d
00000180: d981 08be 7f2d 483e 5e1d 333e ef8c 05be
00000190: 9e54 183e ed51 2c3e 4786 a0bd 97d4 d03d
000001a0: 9081 073e 6573 14bd 1003 df3d e3e4 13be
000001b0: f544 3fbb 757c 3ebe 16eb 5dbc 315d 093e
000001c0: 2b66 cb3d 39eb 22be adae 0f3e 3e37 243e
000001d0: f479 a3bd 3824 193e 38ce c2bd f2b2 2b3e
000001e0: 8e81 f33b 743e 38be 8d63 76bd 27df 1c3e
000001f0: 736e 1ebd 6f15 acbc da38 3b3e 97ef 893d
00000200: 9986 2fbe 4dcb d53d 6e4b d2bd 5c3b 633d
00000210: b671 45bd b4d1 303e baca 833d 2fdc 3fbc
00000220: bdce 403d 219b b8bd 7dc5 e73c 934e d4bc
00000230: 29ca 23be 6b76 e7bc 2ffd 70bd f396 4abd
00000240: d910 8ebd edd9 173e c3b3 16be 3475 e93d
00000250: f166 623e e102 f63d 0f1a 0e3e 67c0 96bd
00000260: 08c0 973d 6f76 d93c 0969 7a3d 4b9e 9ebd
00000270: 6954 27bd b9ef 2d3e aa72 3ebe fb71 d0bc
00000280: 7f7a ee3d 43fd 583d 405f 2d3e cc89 2f3e
00000290: f62f 2f3e 744b 74bd 3def e33d 3a94 653e
000002a0: 3c03 25be da42 d83c ae13 513e 7686 b9bc
000002b0: 51da a1bc 31b8 423e 1649 003e 3e07 063d
000002c0: 9707 3f3c e23e e1bb 5542 693d 64a3 233e
000002d0: 6243 133e 931b 403e b2bb 563e 67e8 1abe
000002e0: 1a7d ecbd 931c 203d a933 86bb bafd 4fbc
000002f0: 4624 533e a312 0b3e 1325 39be 899a 88bc
00000300: ad5f 823d e99c 46bd 5e39 4cbe 6754 273e
00000310: 380f a53d 3fb8 a8bc 162c a4bd 74d1 abbd
00000320: 4417 5abe 9648 0f3d 3b2c 36bd ad78 943d
00000330: 762b 4e3e dd48 95bd a39c 8b3d 1060 0a3e
00000340: 78bb e63d 40c2 2bbd d281 9fbd 2868 553d
00000350: 874f 03be d4d5 94bd 2147 113e 9865 613d
00000360: b48a 00be d7f5 6fbd 33f3 873c 4a8a 17be
00000370: 781f 15be 524f 133e d503 a33d b65f fcbd
00000380: f4ad 32be 2dc7 4ebe 9f31 1d3e 0029 903d
00000390: a683 5bbe 07c7 3dbe 447b b13d e7c8 53be
000003a0: 7ab4 55be 5038 61be 3fd5 b53d 784e b43c
000003b0: 835e 0dbe 100c 013e d232 b63d 67c4 0cbe
000003c0: a04f 51be 9327 1bbe 915e 49be b767 43bb
000003d0: 4be5 1cbe ce45 3ebe ad6f 87bd 477d 45be
000003e0: c85e 083e 69a6 e43c 8afd 97bd ab79 bc3d
000003f0: 048d b13d 4c48 123e 29e1 e83d 6a73 60bc
0.021526292 -0.046807773 0.036648836 -0.11241148 0.11781851 -0.1367492 0.050203774 0.08353216
-0.08809321 -0.20681308 -0.16942373 -0.13857691 -0.09320002 -0.056968015 0.12769154 -0.19686241
-0.096069075 -0.1614452 0.0489882 0.0054768464 0.111408174 0.05276665 -0.17839655 0.026648512
-0.010781216 0.010925079 -0.05627346 -0.15410174 -0.088531025 0.15852606 -0.03826151 -0.13973585
-0.12901248 -0.0041315495 -0.120522335 0.049634863 -0.1386389 -0.023911985 -0.1250229 -0.00567602
-0.13528296 0.103889726 -0.14248742 0.0992425 0.2393748 -0.025929885 -0.19874787 -0.08339863
-0.23263207 -0.20287882 0.029103618 -0.18554084 0.07856557 0.11366051 -0.11616468 -0.12156135
-0.07877247 -0.14550254 -0.09284419 -0.11782714 -0.068060465 -0.18790546 -0.043353748 0.14301516
0.09864712 -0.13860188 -0.16530354 0.03816403 0.2043107 -0.13973267 -0.0140272435 0.029140642
0.0016108741 -0.17632991 -0.1543397 -0.15393828 -0.17138301 -0.030111453 0.112995446 -0.23100185
-0.12819427 -0.11911598 -0.0034365165 0.15628257 0.19346456 -0.0021056866 -0.083879985 0.153675
0.024285426 0.024256736 -0.15770236 -0.14237125 -0.10876779 0.067368284 -0.016413013 0.12050803
-0.13330783 0.19548605 0.17491671 -0.13042043 0.14876029 0.16828127 -0.07838111 0.10196798
0.13233018 -0.03624286 0.10889256 -0.14442782 -0.0029185389 -0.18602164 -0.013544818 0.13414456
0.09931596 -0.15910043 0.14031477 0.16036698 -0.07982245 0.14955223 -0.09511989 0.16767481
0.0074312156 -0.17992574 -0.060153533 0.15319501 -0.03867955 -0.021006314 0.18283406 0.06735151
-0.17141189 0.10439167 -0.10268293 0.05547653 -0.048204146 0.17267495 0.064351514 -0.011710211
0.04707216 -0.090139635 0.028292412 -0.025916373 -0.15995087 -0.028254708 -0.058835205 -0.049460363
-0.06936807 0.14829226 -0.14717011 0.11399308 0.22109582 0.12012268 0.13877128 -0.073609166
0.07409674 0.026545731 0.061135326 -0.07745036 -0.040851984 0.16985978 -0.18598428 -0.025444975
0.11644458 0.052975904 0.16930866 0.17142409 0.1710814 -0.05964227 0.111296155 0.22419825
-0.16114515 0.026399065 0.20417663 -0.022647124 -0.019757422 0.19015576 0.1252788 0.03272175
0.011659524 -0.0068739513 0.056948025 0.15980297 0.14381173 0.18760519 0.20970038 -0.15127717
-0.11547299 0.03908975 -0.004095514 -0.0126947705 0.20619306 0.13581328 -0.18080549 -0.01667525
0.06365905 -0.048489485 -0.19943759 0.1634079 0.08059543 -0.020595668 -0.08016221 -0.083895594
-0.21297938 0.034981333 -0.044475775 0.072495796 0.20133767 -0.07289288 0.068169855 0.13513207
0.112662256 -0.041933298 -0.07788433 0.052101284 -0.12823306 -0.07267347 0.1418729 0.055028528
-0.12552911 -0.05858406 0.016595459 -0.14798847 -0.14562786 0.14385727 0.07959715 -0.12322943
-0.1744917 -0.20193167 0.1535096 0.0703907 -0.21436939 -0.18532954 0.08666089 -0.20682107
-0.20869628 -0.21994138 0.08878564 0.022010073 -0.13805585 0.12602258 0.08896412 -0.13746797
-0.20440531 -0.15151815 -0.1966498 -0.0029816458 -0.15321843 -0.18581316 -0.06613097 -0.19286071
0.13317406 0.027911382 -0.074214056 0.09202894 0.08669475 0.14285392 0.11371071 -0.013699392

conv1.bias f4 [12]
00000000: dc3f 6abd 1ba6 543e f2d2 1bbd 564e ea3d
00000010: 72b7 21be 6a9d f0bd 2158 4a3d 6d41 8fbd
00000020: d9b5 433d 4195 a03d d107 33be ecac a03d
-0.057189807 0.20766489 -0.03804297 0.11440723 -0.15792635 -0.11748774 0.049400453 -0.06994901
0.047780845 0.07840968 -0.1748345 0.07845482

conv2.weight f4 [12, 12, 3, 3]
00000000: 8c46 08bc e3b9 643d 7197 843d 9693 0cbb
00000010: 97e9 50bd 9b54 963d 9a02 a1bd 9881 db3c
00000020: b051 7e3d 9d50 a4bd 031c d13c fb0b b13d
00000030: 4875 7abd 333a 18bd e33c 483d b54a bd3d
00000040: 8c13 453d d9eb b5bd 666b 63bd 8cad 7dbd
00000050: 3cc5 39bd 0a0a 1cbd 068d bfbc fc43 b6bd
00000060: 930a 7fbd af7d c2bd 7e4d 36bd 13f7 1ebb
00000070: 4162 43bd 5228 afbd ad0c 843d f005 81bd
00000080: 3662 61bb f14f 8abd bead 503c ae85 7a3b
00000090: 875c edbb 83d4 4a3d dee3 41bd eb00 3fbd
000000a0: 5044 f0bc 847b a33d 5856 233c 2945 6abd
000000b0: ce4f 82bd e958 bc3d 605c ef3d ba8f 1bbd
000000c0: 22ea f83c d1d0 ffbc 6e70 be3d d870 5fbd
000000d0: 4ace 0b3d 0fb8 b1bb 03e1 c0bc f86e 83bb
000000e0: ee8b 163d fc0d 8d3d c334 943d c9e5 183d
000000f0: e1d4 093d 25c2 76bc 654d f6bc 9775 57bd
00000100: e7cd 98bc ca55 5cb8 7d75 1bbd c725 a1bc
00000110: 298f c03d 2eac 2cbd 7ea5 ca3d f05b 45bd
00000120: 3fd5 7bbd e328 8c3d 4792 1dbd 4f26 bd3c
00000130: 3f39 0dbd 20ab 953d 0123 663c 3557 833c
00000140: 3c98 da3c a15a 4dbd 485c 29bd 478c 613c
00000150: 0669 133d 65ec b23d da43 063d 790c 733d
00000160: 682a 9c3d 6733 4bbb 0f62 6bbd c539 85bd
00000170: 94a1 09bd 8dc1 103d debe 21bd 19e6 c4bd
00000180: dd72 c73d 6802 d73a 1d14 94bd 2fc2 ed3c
00000190: 7d15 173d 29e4 4cbd 3cf6 14bc 03fa a8bd
000001a0: c5df af3c 4714 bfbc 4126 cabd 6090 12bc
000001b0: 6284 db3d 9a23 9c3d 62d3 c43d 0352 15bc
000001c0: 02e8 fcbd 9400 bd3d ad9f c43c 12ae 65bc
000001d0: 1cb1 9d3d 3930 a83d 080f f83d a2e2 903d
000001e0: 7bfa 123e e360 04bd 8af9 16be 81d2 c83d
000001f0: d362 10be 84ad 36bd f958 6c3d 655f e33d
00000200: 6dc7 d8bd bf3f ca3d 892b e5bd 084a 513d
00000210: 3edb 54bd 0a09 50bd 1b25 ecbd df95 8f3d
00000220: d5ae 23bc 322e c93d cc08 ea3d 0de0 b03d
00000230: c7cc 27bd df27 a83d 2a72 9bbd fdb8 863c
00000240: 8ef4 7abd c8ab 633b 242b 543d 480f 793d
00000250: c6c0 afbd 12c1 36bd f273 203d 3d56 8f3d
00000260: 1f4c 8d3d be18 8d3d c166 643d bcce 663c
00000270: 669b a4bc d350 b23d 161c afbd c9ed 09bd
00000280: a2e9 a5bd 377b 143d 62ef f13b 1d45 ad3c
00000290: b89e bbbc 5c7c f3bc e03c c03d 454b b5bc
000002a0: 8b9f 3bbc 54c8 53bd f074 20bd 7a0d db3c
000002b0: 1245 45bd f7cc 9abc 2ede 39bd f4fe 153d
000002c0: 6ec2 fdbd 44b2 b3bd 20d1 683d e84a de3c
000002d0: e182 453d 1eb6 433d 8b94 03be e889 603d
000002e0: 3582 92bd c4e9 c1bd ee2b 063a 3066 50bd
000002f0: 30a3 433d 7996 063e 0e84 51bd 4ab4 aa3d
00000300: 0abf 6abc 7240 9d3a a19d b8bd 8679 c73c
00000310: ec8e 63bd 73c9 0abe 61d3 503d 2eb7 cb3d
00000320: a5f9 bcbd 7089 d63c 0252 ad3c 9c23 a1bd
00000330: a010 53bd fd19 d83a 9c90 35bd 96eb a2bc
00000340: 25f6 9dbd 9c9b 02be 23b3 e1bc 9ead 84bd
00000350: 50d3 0bbe f315 f4bc 5338 55bd e6e9 74bd
00000360: 7e7d b9bc f69f 233d fece bcbc f25f 0d3d
00000370: 2bab 0a3e cbe1 e8bc 8bbc 813d bffe 9abb
00000380: faeb 213d 15ee 433d c5e6 c23d d119 b53d
00000390: 878b 2b3d c74a f13d 968b bc3d 5bae f43d
000003a0: 90f4 8ebc e8e4 873d 8b29 943d 838a 28bd
000003b0: 8484 36bd 3d2e 953d ad7d f0bc f89f 413d
000003c0: 0cf1 cb3d 5b5d 893d 2200 303d 4b6e 3cbd
000003d0: 611f 893d b8f3 9b3c 2586 f73c 3405 13bd
000003e0: 2683 8cbd 79fd 38bc 6707 a5bd 295d df3d
000003f0: 7af7 693d 2271 d4bd bac9 4abd 01f1 32bd
-0.008317601 0.055841338 0.06474198 -0.0021450273 -0.05100402 0.07340356 -0.07861824 0.026795194
0.062089622 -0.08023188 0.025526052 0.08644863 -0.061147004 -0.037164878 0.04888619 0.09242765
0.048114344 -0.08882875 -0.055522345 -0.061933085 -0.045354113 -0.03809551 -0.023382675 -0.08899686
-0.062265944 -0.094966285 -0.044507496 -0.0024256154 -0.047701124 -0.08552612 0.0644773 -0.062999606
-0.0034390814 -0.06753529 0.012736736 0.0038226652 -0.007243696 0.049519073 -0.04733645 -0.046631735
-0.029329449 0.07982543 0.009969316 -0.057194863 -0.06362878 0.09196646 0.11687541 -0.037978865
0.03038508 -0.031227501 0.09298788 -0.054550976 0.03413228 -0.005423553 -0.023544794 -0.0040110312
0.03675454 0.06887433 0.07236626 0.037328515 0.033650283 -0.015060936 -0.030066201 -0.052602377
-0.01865287 -5.2531985e-05 -0.037953842 -0.019671334 0.09402306 -0.04215639 0.098948464 -0.04818338
-0.061482664 0.06843736 -0.03846958 0.023089556 -0.034478422 0.0730803 0.0140464315 0.016032794
0.02668392 -0.05013526 -0.041347772 0.013766355 0.03598883 0.08736495 0.032779552 0.059338067
0.07625276 -0.003100598 -0.057466563 -0.06505159 -0.03360136 0.035340834 -0.039488666 -0.096142
0.09738705 0.0016403915 -0.07230399 0.029023258 0.036885727 -0.050022278 -0.00909191 -0.08250811
0.021469006 -0.023325099 -0.098705776 -0.0089455545 0.107186094 0.07623978 0.096106306 -0.009113791
-0.123489395 0.09228626 0.02400192 -0.014018552 0.076997966 0.08212323 0.12112242 0.07074477
0.14353363 -0.03231896 -0.14743629 0.098057754 -0.14100198 -0.04459907 0.05770204 0.111021794
-0.105849124 0.0987544 -0.11189944 0.051095992 -0.0519669 -0.05078987 -0.11530515 0.070110075
-0.009990414 0.09823264 0.11427459 0.08636484 -0.040966775 0.0821073 -0.075901344 0.016445631
-0.06126838 0.003473984 0.051798955 0.06080559 -0.085816905 -0.04461772 0.039173074 0.069988705
0.068992846 0.06889485 0.055762056 0.014087375 -0.020093631 0.08706822 -0.08550279 -0.033674035
-0.081012025 0.03625032 0.007383273 0.02115112 -0.022902831 -0.029722385 0.09386611 -0.022130618
-0.011451612 -0.05170472 -0.03917402 0.026739825 -0.048161574 -0.018896563 -0.045377903 0.036620095
-0.123906 -0.08774236 0.056840062 0.027135327 0.04822052 0.047781102 -0.12849633 0.054819018
-0.07153741 -0.094684154 0.00051182404 -0.050878704 0.04776305 0.13143338 -0.051151328 0.08335169
-0.014327774 0.0011997356 -0.0901444 0.02434994 -0.055556223 -0.1355341 0.050982837 0.09947048
-0.092273034 0.026188582 0.021157268 -0.0786812 -0.051529527 0.0016487237 -0.044327363 -0.019887727
-0.07712964 -0.12754673 -0.02755124 -0.06478427 -0.13654828 -0.029795622 -0.052055668 -0.059793375
-0.022642847 0.039947473 -0.02304792 0.03451533 0.13541858 -0.028427979 0.0633479 -0.004730075
0.039531685 0.047834475 0.09516672 0.08842815 0.04188111 0.11781841 0.092063114 0.11947318
-0.0174506 0.06635457 0.07234486 -0.04114772 -0.04455997 0.0728421 -0.029356802 0.0472717
0.099580854 0.06707259 0.042968877 -0.04600362 0.06695438 0.019037113 0.030215332 -0.035893634
-0.06860952 -0.011290901 -0.080580525 0.10906441 0.057120778 -0.10373141 -0.049508788 -0.04368687

conv2.bias f4 [12]
00000000: 1b3f c6bd fc05 abbd 4594 f83d d22e 1c3d
00000010: 8a87 e13d 560b 083c 09a4 c4bc 0683 a73d
00000020: 6812 61bd a81c 273c 060c bebb 7f2b 8d3d
-0.09680005 -0.08350751 0.12137655 0.03813059 0.1101218 0.008303484 -0.024004 0.081792876
-0.054949194 0.010199703 -0.005799773 0.06893062

conv3.weight f4 [24, 12, 3, 3]
00000000: 24aa 233d 31be 773d 051b 973d 0c24 8cbd
00000010: 1628 64bd fc6f 99bc ace4 f43a 2b5d 8ebd
00000020: 487a 4abb 42fd b43d a61b 403d 1464 65bd
00000030: d993 cbbd 698c 80bb 13e9 fdbc 11aa 5ebd
00000040: cdbe 44bd 14cb 5dbd 09b6 e2bc 04a4 74bd
00000050: b2e3 c5bc b0b9 933d 6356 1e3d 1c5e 5b3d
00000060: d1ba d0bb a702 cbbd 8f8d e8bd 75c3 933d
00000070: bc39 8fbb 3738 27bc 79d6 903d 0ccc 333d
00000080: cc5d b1bc ea49 203d 41fd 02bc 2a19 a0bc
00000090: 12ca c5bd 07fd dabc 2166 12bd 5474 79bd
000000a0: 4fb2 85bc d511 9f3c 3340 87bd a849 b8bd
000000b0: 9a2f 8e3d cb4b 313d 9177 c4bd f6aa 9b3d
000000c0: 9f84 1abb a723 8d3d 4262 a33c 5fca 133c
000000d0: b3a5 813d 5e9b b73d 7cb3 5a3d 61dd b8bd
000000e0: 7777 b2bd 417b c0bd a0d1 e1bc f103 bdbc
000000f0: a880 95bd f4ed a53b ce6d 913c 2ad6 a0bc
00000100: 58ef 903c fa8b bdbd 82ff a4bd 8973 c93c
00000110: e11f e1bd 0081 f5bc 3ada 9e3c aee9 0fbc
00000120: b113 833c 819c b0bd eeb3 a23d 63a3 88bd
00000130: 2c41 933c a057 83bd 02a5 4dbd 0b37 86ba
00000140: 7da7 1b3d 9569 303c 6c5c 7c3d 4de7 acbd
00000150: e819 5abd 43e8 963d 533c 983d e33d 343d
00000160: fd9c af3d a444 823d db59 83bd 7233 4ebd
00000170: 12aa 90bc 3878 363d 78b0 58bc f202 6f3d
00000180: c670 51bc dce0 a73d 93e0 02bd 2faf 053d
00000190: fb47 c0bd b16b 68bd 03f1 0abd 2142 023d
000001a0: b4df d83c 79b2 a83d c209 91bc 8214 5ebd
000001b0: aa0c 873d 2d1b 773c 2eb9 25bd bc60 70bd
000001c0: 1cd0 a23a f8f5 04bd 5b5a 72bc 129e f83c
000001d0: e244 133d 5170 e3bd c770 ebbd ad0f c3bb
000001e0: 9cce c43c 96dd 70bd d873 b6bd d382 bebd
000001f0: 469f 163d 155f 44bd 2d72 d7bd a0f0 823d
00000200: b4aa 6ebd 4b2a b1bd fca3 b5bd 462e c83d
00000210: 08ab 8e3d 1f3a ccbd be18 b73d 7680 7e3c
00000220: b0bc 883c 1895 43bc 4af4 c9bd 94f0 1a3d
00000230: 5c35 30bd 5cac 51bc 6739 8e3c 2142 773d
00000240: e6ce b5bb bbd5 b13d 1c0f 0a3d 7314 993d
00000250: 7c97 a93d b360 10bd b724 a7bb 20cb 98bd
00000260: 164a 943d 64c3 8c3d 2b33 5e3d a4d3 99bc
00000270: b6f6 243d dba0 973d 8c37 cbb9 a093 883d
00000280: 3110 80bd 7a65 c23c 6ba4 8e3d 098d aa3d
00000290: 417c 013e 0527 73bd 2879 48bb 3490 19bd
000002a0: f015 b2bd 67d1 46bd 09bb b33d 5254 95bb
000002b0: b196 063c c654 b03d 549b 47bd d8c4 be3d
000002c0: 5f17 47bd 768c 93bd a559 613d 803d 00bd
000002d0: ba61 a23d 9b1e a23d 7003 b43d 1c35 8ebc
000002e0: 8aa1 f83d 643d 213d ef59 58bd da79 51bd
000002f0: 1c8e 013d 2109 7f3d c7f1 293d c23b c53d
00000300: 10f9 923d 3373 95bd d236 8a3d 15fd 6dbc
00000310: 2e32 b83b bc89 f3bc a29b 273d 2369 493d
00000320: 07ef a73c b0be 84bd 2947 093e be62 023e
00000330: 74c1 a93d 9e92 143d 21e4 9fbc 7656 90bc
00000340: 56b0 f6bc 191d 87bd 7e2f 253d e1f7 2c3d
00000350: c2cd f138 47db 1fbd 7530 59bb 7514 40bd
00000360: 20ad 463c 7e48 16bd e20f 2fbd 5890 d23a
00000370: e7ca af3d 738a 7bbd d61a 763d adfa 24bd
00000380: b5f9 95bd 1f81 4d3c 21ae d4bd 6260 6bbd
00000390: 02b0 4dbb ed1f a5bd b77a c3bd 2905 c5bb
000003a0: 0878 2bbd 5539 c2bd 0fe3 80bd 758f 3a3d
000003b0: d2a9 8b3d 033a 4ebd ce11 db3d 423f 8c3d
000003c0: 16ce 8cbd cb27 c03d cd1c b2bc 85e6 093c
000003d0: 6c72 cd3c 3b7d 173e 02e7 033d 86f3 c0bc
000003e0: 2521 d73d b130 d9bc 1b1d e33b e4e9 c63d
000003f0: f401 e43a 43ea 45bd de4a cf3c 5d30 3e3d
0.03995718 0.060484115 0.073782004 -0.06842813 -0.05570229 -0.018730156 0.0018683872 -0.06951364
-0.003089564 0.088373676 0.046901368 -0.056003645 -0.09940309 -0.003922988 -0.030994928 -0.054361407
-0.048033524 -0.05414875 -0.027674692 -0.05972673 -0.024156425 0.072131515 0.038656604 0.053556547
-0.0063699265 -0.09912615 -0.11355125 0.07215015 -0.004370896 -0.010206274 0.070721574 0.043895766
-0.021651171 0.03913299 -0.007994951 -0.01954325 -0.096576825 -0.026731981 -0.03574193 -0.060901955
-0.016320376 0.019417683 -0.06604042 -0.08998424 0.06942673 0.043285172 -0.09593118 0.076009676
-0.0023577583 0.06891566 0.019944314 0.009020417 0.06330433 0.08965181 0.053393826 -0.090266
-0.08714192 -0.09398509 -0.027565777 -0.023073168 -0.0729993 0.0050637666 0.017752554 -0.019633371
0.017692253 -0.09255214 -0.08056547 0.024591224 -0.109924085 -0.029968739 0.019391168 -0.008783741
0.0160006 -0.08623601 0.07944475 -0.066717885 0.017975412 -0.064131975 -0.05020619 -0.0010239793
0.038001526 0.01076736 0.061611578 -0.084425546 -0.053247362 0.07368519 0.07433381 0.044004332
0.08574865 0.063607484 -0.06413623 -0.05034203 -0.01765922 0.044548243 -0.013225667 0.05835242
-0.012783235 0.081971854 -0.031952452 0.03263777 -0.09388729 -0.056743328 -0.033921253 0.031801347
0.026473857 0.08237166 -0.017704848 -0.054218777 0.06594212 0.015082163 -0.040459804 -0.058686003
0.001242164 -0.032461137 -0.01479205 0.030348811 0.035954364 -0.11105407 -0.1149612 -0.0059527964
0.0240243 -0.05880507 -0.08908814 -0.093022965 0.03677299 -0.04794224 -0.10519824 0.06393552
-0.058268264 -0.08650645 -0.08869168 0.09774451 0.06966215 -0.09972023 0.08940266 0.015533557
0.016691536 -0.011937402 -0.098610476 0.03782709 -0.043019637 -0.012797441 0.017361356 0.0603658
-0.005548346 0.08683344 0.033705816 0.074746035 0.082808465 -0.03524847 -0.0051008123 -0.07460618
0.07240693 0.06873205 0.054248016 -0.018777676 0.040274344 0.074037276 -0.00038760563 0.06668782
-0.06253088 0.023730028 0.06964954 0.083276816 0.12645055 -0.059363384 -0.0030589793 -0.03749104
-0.086955905 -0.048539545 0.087759085 -0.004557171 0.008214639 0.08609919 -0.048732117 0.09314889
-0.048606273 -0.07204525 0.055017132 -0.03130865 0.07928796 0.07915994 0.08789718 -0.017359309
0.12140186 0.039365187 -0.052820142 -0.051141597 0.031629667 0.062264565 0.041490342 0.096305385
0.07176411 -0.07297363 0.067487374 -0.0145256715 0.0056212163 -0.029728763 0.040919907 0.04917253
0.02049972 -0.06481683 0.13406052 0.1273298 0.082888514 0.036272638 -0.01951796 -0.017619353
-0.03011338 -0.06597347 0.040328495 0.042228583 0.00011530101 -0.03902748 -0.0033140455 -0.04689451
0.012126237 -0.036690228 -0.042739756 0.0016064746 0.085836224 -0.061411332 0.060084186 -0.040278126
-0.073230185 0.012542992 -0.10384775 -0.057464965 -0.0031385426 -0.0806273 -0.095448904 -0.006012578
-0.041862518 -0.094835915 -0.06293308 0.045546968 0.068195 -0.050348293 0.10696755 0.06848003
-0.06875245 0.0938259 -0.021742249 0.008416777 0.025078975 0.14793865 0.032202728 -0.023553621
0.10504369 -0.026512476 0.00693096 0.0971258 0.0017395602 -0.048319113 0.025304254 0.04643284

conv3.bias f4 [24]
00000000: 65a7 fa3c 66ee d4bc 46af 47bc 963c 803d
00000010: 3337 8abd 08f2 ddbc 07d5 6b3d b8a9 c63d
00000020: 3f6d 493d cf9e c6bc 06fd 753d cec3 9d3d
00000030: cc61 a13d 5fd7 ab3d fac8 fb3c b9ae 193c
00000040: eba0 713d 6ff1 8c3d 3e09 81bd e364 35bd
00000050: 19cf c4bd b3f0 963d aa87 1fbd 53a0 983d
0.030597398 -0.025992583 -0.012187785 0.06261556 -0.0674881 -0.027092949 0.057576206 0.0970034
0.04917645 -0.024245648 0.060055755 0.077033624 0.078799814 0.08390688 0.030735482 0.009380036
0.058991354 0.06881987 -0.06300591 -0.044285666 -0.09609813 0.073701285 -0.03894774 0.074524544

fc.weight f4 [3, 24576]
00000000: 5cba 0b3c ac72 c73a 429a 8d3b 91bd 593c
00000010: 49d3 22bc 3e82 073b bfab 903b a031 c33b
00000020: c2b0 253b a726 b43b 3f8d 463c 8589 90bb
00000030: 2a81 dd3b caa3 0eba ff9c 563c 0abd b2ba
00000040: 25d5 19bb 629e 90bb 3fc3 c63b 60aa bf3b
00000050: 71e5 94bb f8fa 3a3b 85b6 22bc 1392 1abb
00000060: 422d e5bb 985b 0e3c 5d30 443c 45c3 eb3b
00000070: b018 66bb 25eb ed3a dbf3 0a3c c864 2a3b
00000080: 6857 17bc 9131 6fbb 878c 0a3b a500 8eba
00000090: 4ecc 583c 86db ef3b 16ce 203b 1a30 b73a
000000a0: b88f d33b af9f 63b8 5dcd 4ebb 8029 05ba
000000b0: e893 33bb 38dd 443a 679d fe39 9ba0 f3ba
000000c0: fa79 6aba 4dfc e139 b24d 0ebb 79fc c338
000000d0: aff4 bfbb 67c6 3b3c 3d43 d53b 8f7f e739
000000e0: faf0 f5ba 6441 a6b9 7cd9 63bb 9d57 a0bb
000000f0: a81f 463a 41d9 b73b 40aa b2bb 2528 223b
00000100: 4f67 c23a 0ea7 3fbc 5fa0 693a f230 5a3b
00000110: 62a2 e43b f95b 453c c678 a23b 053a 933b
00000120: cca3 4d3b e826 5aba 2587 baba 5e51 84bb
00000130: 6e6a 753c 8dab baba 6e8d a73b e0c0 2a3a
00000140: 837c 08bc bfe8 4a3c 3899 583b cff1 c5ba
00000150: fe71 f53b f49e 03bb 49f0 83bb 9d7a 323b
00000160: b4ae 863b 56a0 343b 7a67 b2bb 68e8 1a3c
00000170: 878d 503c 34db 2abc 4425 9abb 9ef2 86bb
00000180: 89eb 9dbb 0656 8a3b 2eaa 0cbb b029 113c
00000190: c00f e13b 0d6c 433c b2be 533c 523b 263c
000001a0: 86f9 9c3b ca3a fdbb 1d66 e0ba 77a0 39ba
000001b0: c3a8 a2bb bbd2 e1bb e615 e0ba cabd f8ba
000001c0: df06 3abb f129 36bc d9ad 1f3c 382f d0b9
000001d0: 5677 42bb e530 79bb 90c6 6d3b 6651 e13a
000001e0: 51d7 1b3c 488a 463c af85 b23a ba8d 0ebc
000001f0: 7cf4 a2bb f4b2 503c 3d0e 213a 3226 b03b
00000200: 5e3b b93b 56dc d6bb 9e30 f53b 8c41 5d3c
00000210: da18 0b3c b65a 503c 76c6 2a3c 4174 733c
00000220: d308 a13b c6f6 9db9 bba5 633a 6ca6 163c
00000230: fb9a a8b9 9a12 933c fc04 023c a59b 923b
00000240: 80a1 a43a a887 8b3b a64c ed3a 058c f83a
00000250: 1cd0 32bb a139 1d3a 7fdf 9d3a 06e9 b0bb
00000260: 9c52 c3b9 98e6 fe3a 8768 1e3b e4b0 a8bb
00000270: f0de fbbb 219f 3abb 17e5 03bb 1404 573c
00000280: db4d 27bc c011 2e3b a0e7 4f3b d446 c43b
00000290: 8740 223c c4de 933b b70a 383c 6bf8 133c
000002a0: a623 31bb 8584 e03a 36bb 22b9 13ef 653b
000002b0: 2030 093a 1eec 923b eba6 873b 1460 0539
000002c0: b26b 143c 7c8a 933b 6dab 763b 77c7 a23b
000002d0: dd66 76ba bdf0 663b c807 e4b7 2d04 3fbb
000002e0: aa2a a83a 88e1 8f3b 8288 293b 979e aeb9
000002f0: 4226 edb9 82e6 adbb be2f a93a d529 fb3b
00000300: f680 d3bb 28ac 4abb e831 973b 7839 c73b
00000310: 5b0f c13b 6206 1c3b d4c2 e83a f6b0 9d3b
00000320: bcf0 9b3b b35e ea3b 35df 173c 425a c5ba
00000330: 0201 fabb e234 f63b 571a d63b f43e 993b
00000340: 0428 413c 02e6 ba3b eb8f be3b c9cd 15bb
00000350: 7315 85bb 1f06 e93a a8bb 1fbc 6a9f 6d3b
00000360: cdb4 b7bb 956b 1f3c 7943 b13b bcb1 2c3b
00000370: d003 ac3b 5c31 c93b c509 003b 3e98 e5bb
00000380: f8af 4e3c c928 e23b c464 9c3a af16 273c
00000390: 70fc bab9 1a81 31bb cef4 853c 84ec 8e3c
000003a0: 305d d43a 75f4 263c 2b04 bcba 9c56 733b
000003b0: efd0 a0bc 1487 e63a 8f97 90ba 4567 9c3b
000003c0: 73d5 913c e448 0ab9 1390 603c 8dac 0b3c
000003d0: 40e0 553c 772b 66bc 3cdf aeba 7fa9 70ba
000003e0: 3435 6a3b d907 d2bb 146c 14b9 ff26 d73b
000003f0: 86c0 543b c305 003c a851 95bb 58ac b9ba
0.008528318 0.001521667 0.0043213675 0.013289825 -0.00993807 0.0020676996 0.004415005 0.0059568435
0.0025282358 0.005497772 0.012118637 -0.004410925 0.0067597823 -0.00054412766 0.013098954 -0.001363666
-0.0023472991 -0.004413412 0.0060657556 0.0058491677 -0.004543953 0.0028530937 -0.009931211 -0.0023585602
-0.0069939205 0.00868883 0.011974421 0.007194909 -0.003510993 0.0018151744 0.008480991 0.0026000012
-0.009237148 -0.003649805 0.002114089 -0.0010833932 0.013232304 0.0073198704 0.00245369 0.0013976127
0.0064563416 -5.4269734e-05 -0.0031555512 -0.00050797313 -0.0027401391 0.0007509771 0.0004856393 -0.0018587293
-0.00089445675 0.00043103323 -0.002171379 9.345351e-05 -0.005858026 0.011460877 0.0065082596 0.00044154792
-0.0018763833 -0.00031710707 -0.0034767082 -0.004893257 0.0007557818 0.0056106155 -0.0054524243 0.0024743166
0.0014831814 -0.011697544 0.0008912142 0.0033293334 0.0069773654 0.012045854 0.004958245 0.0044930005
0.0031378148 -0.00083218375 -0.001423095 -0.00403802 0.014978988 -0.00142418 0.0051132953 0.0006513726
-0.008330467 0.012384593 0.003305031 -0.0015101972 0.0074903956 -0.0020083757 -0.004026447 0.0027233728
0.0041101817 0.0027561388 -0.0054444643 0.009454824 0.012729055 -0.010428239 -0.0047041494 -0.0041182777
-0.0048193377 0.0042216806 -0.002146374 0.008860037 0.0068683326 0.011927617 0.012923883 0.010145979
0.0047904877 -0.0077279555 -0.0017120276 -0.0007081101 -0.0049639656 -0.006891576 -0.001709637 -0.001897746
-0.0028385443 -0.011118398 0.009746038 -0.00039708032 -0.002967318 -0.0038023528 0.0036281683 0.0017190396
0.009511785 0.01211793 0.0013620163 -0.008700782 -0.0049729925 0.012737978 0.0006143784 0.005375647
0.005652829 -0.006557028 0.0074826023 0.013504397 0.008489812 0.01271694 0.010423293 0.01485926
0.004914382 -0.00030129234 0.00086840586 0.0091949515 -0.00032158926 0.017953206 0.007935759 0.0044741207
0.0012560338 0.004258115 0.0018104508 0.0018962628 -0.0027284687 0.0005997662 0.0012044756 -0.0053988723
-0.00037254847 0.0019447384 0.002417119 -0.00514804 -0.0076864883 -0.0028476196 -0.0020125562 0.013123531
-0.010211433 0.0026560873 0.0031723753 0.0059898887 0.00990308 0.0045126397 0.011233023 0.009031395
-0.0027029305 0.0017129338 -0.00015519265 0.0035085126 0.00052333064 0.004483714 0.004139771 0.0001271966
0.00905888 0.0045025926 0.0037638799 0.0049676257 -0.0009399483 0.0035238706 -2.7183341e-05 -0.0029146776
0.0012830098 0.004390899 0.0025868719 -0.00033306025 -0.00045232667 -0.0053070197 0.0012907905 0.007664899
-0.0064545823 -0.0030925367 0.0046141036 0.006079849 0.005891723 0.0023807515 0.0017758259 0.004812355
0.0047589224 0.0071524023 0.009269525 -0.0015056806 -0.0076295147 0.0075136283 0.0065339017 0.004676694
0.011789326 0.0057036886 0.005815496 -0.0022858253 -0.004061395 0.0017778313 -0.009749331 0.0036258348
-0.00560627 0.009730239 0.0054096547 0.0026351055 0.005249478 0.0061399173 0.0019537073 -0.007006674
0.012615196 0.0069018346 0.0011931886 0.010198279 -0.00035664765 -0.0027085007 0.016352084 0.017446764
0.0016202088 0.010190119 -0.0014344504 0.003713048 -0.019630877 0.0017587864 -0.0011031496 0.004773053
0.017801976 -0.0001318786 0.013706225 0.008525026 0.013053954 -0.014048449 -0.0013341676 -0.00091805303
0.0035737278 -0.006409627 -0.00014154642 0.006565928 0.0032463386 0.007813874 -0.0045568533 -0.0014165742

fc.bias f4 [3]
00000000: 47c9 c4bb 967f 5f3b 155c ae39
-0.0060054394 0.0034103147 0.00033256473
